In [1]: %run quick_test.py
libdc1394 error: Failed to initialize libdc1394
/usr/lib/python2.7/dist-packages/pkg_resources.py:1031: UserWarning: /home/ubuntu/.python-eggs is writable by group/others and vulnerable to attack when used with get_resource_filename. Consider a more secure location (set with .set_extraction_path or the PYTHON_EGG_CACHE environment variable).
  warnings.warn(msg, UserWarning)
WARNING: Logging before InitGoogleLogging() is written to STDERR
I1029 08:28:40.086062  1910 net.cpp:39] Initializing net from parameters: 
name: "CaffeNet"
layers {
  bottom: "data"
  top: "conv1"
  name: "conv1"
  type: CONVOLUTION
  convolution_param {
    num_output: 96
    kernel_size: 11
    stride: 4
  }
}
layers {
  bottom: "conv1"
  top: "conv1"
  name: "relu1"
  type: RELU
}
layers {
  bottom: "conv1"
  top: "pool1"
  name: "pool1"
  type: POOLING
  pooling_param {
    pool: MAX
    kernel_size: 3
    stride: 2
  }
}
layers {
  bottom: "pool1"
  top: "norm1"
  name: "norm1"
  type: LRN
  lrn_param {
    local_size: 5
    alpha: 0.0001
    beta: 0.75
  }
}
layers {
  bottom: "norm1"
  top: "conv2"
  name: "conv2"
  type: CONVOLUTION
  convolution_param {
    num_output: 256
    pad: 2
    kernel_size: 5
    group: 2
  }
}
layers {
  bottom: "conv2"
  top: "conv2"
  name: "relu2"
  type: RELU
}
layers {
  bottom: "conv2"
  top: "pool2"
  name: "pool2"
  type: POOLING
  pooling_param {
    pool: MAX
    kernel_size: 3
    stride: 2
  }
}
layers {
  bottom: "pool2"
  top: "norm2"
  name: "norm2"
  type: LRN
  lrn_param {
    local_size: 5
    alpha: 0.0001
    beta: 0.75
  }
}
layers {
  bottom: "norm2"
  top: "conv3"
  name: "conv3"
  type: CONVOLUTION
  convolution_param {
    num_output: 384
    pad: 1
    kernel_size: 3
  }
}
layers {
  bottom: "conv3"
  top: "conv3"
  name: "relu3"
  type: RELU
}
layers {
  bottom: "conv3"
  top: "conv4"
  name: "conv4"
  type: CONVOLUTION
  convolution_param {
    num_output: 384
    pad: 1
    kernel_size: 3
    group: 2
  }
}
layers {
  bottom: "conv4"
  top: "conv4"
  name: "relu4"
  type: RELU
}
layers {
  bottom: "conv4"
  top: "conv5"
  name: "conv5"
  type: CONVOLUTION
  convolution_param {
    num_output: 256
    pad: 1
    kernel_size: 3
    group: 2
  }
}
layers {
  bottom: "conv5"
  top: "conv5"
  name: "relu5"
  type: RELU
}
layers {
  bottom: "conv5"
  top: "pool5"
  name: "pool5"
  type: POOLING
  pooling_param {
    pool: MAX
    kernel_size: 3
    stride: 2
  }
}
layers {
  bottom: "pool5"
  top: "fc6"
  name: "fc6"
  type: INNER_PRODUCT
  inner_product_param {
    num_output: 4096
  }
}
layers {
  bottom: "fc6"
  top: "fc6"
  name: "relu6"
  type: RELU
}
layers {
  bottom: "fc6"
  top: "fc6"
  name: "drop6"
  type: DROPOUT
  dropout_param {
    dropout_ratio: 0.5
  }
}
layers {
  bottom: "fc6"
  top: "fc7"
  name: "fc7"
  type: INNER_PRODUCT
  inner_product_param {
    num_output: 4096
  }
}
layers {
  bottom: "fc7"
  top: "fc7"
  name: "relu7"
  type: RELU
}
layers {
  bottom: "fc7"
  top: "fc7"
  name: "drop7"
  type: DROPOUT
  dropout_param {
    dropout_ratio: 0.5
  }
}
layers {
  bottom: "fc7"
  top: "fc8"
  name: "fc8"
  type: INNER_PRODUCT
  inner_product_param {
    num_output: 1000
  }
}
layers {
  bottom: "fc8"
  top: "prob"
  name: "prob"
  type: SOFTMAX
}
input: "data"
input_dim: 10
input_dim: 3
input_dim: 227
input_dim: 227
I1029 08:28:40.086869  1910 net.cpp:358] Input 0 -> data
I1029 08:28:40.086925  1910 net.cpp:67] Creating Layer conv1
I1029 08:28:40.086941  1910 net.cpp:394] conv1 <- data
I1029 08:28:40.086951  1910 net.cpp:356] conv1 -> conv1
I1029 08:28:40.086968  1910 net.cpp:96] Setting up conv1
I1029 08:28:40.087079  1910 net.cpp:103] Top shape: 10 96 55 55 (2904000)
I1029 08:28:40.087116  1910 net.cpp:67] Creating Layer relu1
I1029 08:28:40.087131  1910 net.cpp:394] relu1 <- conv1
I1029 08:28:40.087141  1910 net.cpp:345] relu1 -> conv1 (in-place)
I1029 08:28:40.087151  1910 net.cpp:96] Setting up relu1
I1029 08:28:40.087162  1910 net.cpp:103] Top shape: 10 96 55 55 (2904000)
I1029 08:28:40.087172  1910 net.cpp:67] Creating Layer pool1
I1029 08:28:40.087182  1910 net.cpp:394] pool1 <- conv1
I1029 08:28:40.087193  1910 net.cpp:356] pool1 -> pool1
I1029 08:28:40.087209  1910 net.cpp:96] Setting up pool1
I1029 08:28:40.087224  1910 net.cpp:103] Top shape: 10 96 27 27 (699840)
I1029 08:28:40.087239  1910 net.cpp:67] Creating Layer norm1
I1029 08:28:40.087249  1910 net.cpp:394] norm1 <- pool1
I1029 08:28:40.087260  1910 net.cpp:356] norm1 -> norm1
I1029 08:28:40.087271  1910 net.cpp:96] Setting up norm1
I1029 08:28:40.087283  1910 net.cpp:103] Top shape: 10 96 27 27 (699840)
I1029 08:28:40.087301  1910 net.cpp:67] Creating Layer conv2
I1029 08:28:40.087311  1910 net.cpp:394] conv2 <- norm1
I1029 08:28:40.087323  1910 net.cpp:356] conv2 -> conv2
I1029 08:28:40.087339  1910 net.cpp:96] Setting up conv2
I1029 08:28:40.087947  1910 net.cpp:103] Top shape: 10 256 27 27 (1866240)
I1029 08:28:40.087975  1910 net.cpp:67] Creating Layer relu2
I1029 08:28:40.087986  1910 net.cpp:394] relu2 <- conv2
I1029 08:28:40.087998  1910 net.cpp:345] relu2 -> conv2 (in-place)
I1029 08:28:40.088011  1910 net.cpp:96] Setting up relu2
I1029 08:28:40.088017  1910 net.cpp:103] Top shape: 10 256 27 27 (1866240)
I1029 08:28:40.088027  1910 net.cpp:67] Creating Layer pool2
I1029 08:28:40.088034  1910 net.cpp:394] pool2 <- conv2
I1029 08:28:40.088044  1910 net.cpp:356] pool2 -> pool2
I1029 08:28:40.088055  1910 net.cpp:96] Setting up pool2
I1029 08:28:40.088064  1910 net.cpp:103] Top shape: 10 256 13 13 (432640)
I1029 08:28:40.088075  1910 net.cpp:67] Creating Layer norm2
I1029 08:28:40.088090  1910 net.cpp:394] norm2 <- pool2
I1029 08:28:40.088099  1910 net.cpp:356] norm2 -> norm2
I1029 08:28:40.088109  1910 net.cpp:96] Setting up norm2
I1029 08:28:40.088119  1910 net.cpp:103] Top shape: 10 256 13 13 (432640)
I1029 08:28:40.088131  1910 net.cpp:67] Creating Layer conv3
I1029 08:28:40.088141  1910 net.cpp:394] conv3 <- norm2
I1029 08:28:40.088151  1910 net.cpp:356] conv3 -> conv3
I1029 08:28:40.088162  1910 net.cpp:96] Setting up conv3
I1029 08:28:40.089632  1910 net.cpp:103] Top shape: 10 384 13 13 (648960)
I1029 08:28:40.089659  1910 net.cpp:67] Creating Layer relu3
I1029 08:28:40.089669  1910 net.cpp:394] relu3 <- conv3
I1029 08:28:40.089681  1910 net.cpp:345] relu3 -> conv3 (in-place)
I1029 08:28:40.089692  1910 net.cpp:96] Setting up relu3
I1029 08:28:40.089700  1910 net.cpp:103] Top shape: 10 384 13 13 (648960)
I1029 08:28:40.089711  1910 net.cpp:67] Creating Layer conv4
I1029 08:28:40.089720  1910 net.cpp:394] conv4 <- conv3
I1029 08:28:40.089728  1910 net.cpp:356] conv4 -> conv4
I1029 08:28:40.089740  1910 net.cpp:96] Setting up conv4
I1029 08:28:40.090873  1910 net.cpp:103] Top shape: 10 384 13 13 (648960)
I1029 08:28:40.090898  1910 net.cpp:67] Creating Layer relu4
I1029 08:28:40.090906  1910 net.cpp:394] relu4 <- conv4
I1029 08:28:40.090915  1910 net.cpp:345] relu4 -> conv4 (in-place)
I1029 08:28:40.090924  1910 net.cpp:96] Setting up relu4
I1029 08:28:40.090934  1910 net.cpp:103] Top shape: 10 384 13 13 (648960)
I1029 08:28:40.090948  1910 net.cpp:67] Creating Layer conv5
I1029 08:28:40.090970  1910 net.cpp:394] conv5 <- conv4
I1029 08:28:40.090987  1910 net.cpp:356] conv5 -> conv5
I1029 08:28:40.091001  1910 net.cpp:96] Setting up conv5
I1029 08:28:40.091848  1910 net.cpp:103] Top shape: 10 256 13 13 (432640)
I1029 08:28:40.091881  1910 net.cpp:67] Creating Layer relu5
I1029 08:28:40.091897  1910 net.cpp:394] relu5 <- conv5
I1029 08:28:40.091907  1910 net.cpp:345] relu5 -> conv5 (in-place)
I1029 08:28:40.091917  1910 net.cpp:96] Setting up relu5
I1029 08:28:40.091924  1910 net.cpp:103] Top shape: 10 256 13 13 (432640)
I1029 08:28:40.091935  1910 net.cpp:67] Creating Layer pool5
I1029 08:28:40.091944  1910 net.cpp:394] pool5 <- conv5
I1029 08:28:40.091953  1910 net.cpp:356] pool5 -> pool5
I1029 08:28:40.091964  1910 net.cpp:96] Setting up pool5
I1029 08:28:40.091974  1910 net.cpp:103] Top shape: 10 256 6 6 (92160)
I1029 08:28:40.091984  1910 net.cpp:67] Creating Layer fc6
I1029 08:28:40.091991  1910 net.cpp:394] fc6 <- pool5
I1029 08:28:40.092000  1910 net.cpp:356] fc6 -> fc6
I1029 08:28:40.092011  1910 net.cpp:96] Setting up fc6
I1029 08:28:40.144492  1910 net.cpp:103] Top shape: 10 4096 1 1 (40960)
I1029 08:28:40.144574  1910 net.cpp:67] Creating Layer relu6
I1029 08:28:40.144585  1910 net.cpp:394] relu6 <- fc6
I1029 08:28:40.144598  1910 net.cpp:345] relu6 -> fc6 (in-place)
I1029 08:28:40.144611  1910 net.cpp:96] Setting up relu6
I1029 08:28:40.144620  1910 net.cpp:103] Top shape: 10 4096 1 1 (40960)
I1029 08:28:40.144640  1910 net.cpp:67] Creating Layer drop6
I1029 08:28:40.144654  1910 net.cpp:394] drop6 <- fc6
I1029 08:28:40.144665  1910 net.cpp:345] drop6 -> fc6 (in-place)
I1029 08:28:40.144675  1910 net.cpp:96] Setting up drop6
I1029 08:28:40.144688  1910 net.cpp:103] Top shape: 10 4096 1 1 (40960)
I1029 08:28:40.144704  1910 net.cpp:67] Creating Layer fc7
I1029 08:28:40.144716  1910 net.cpp:394] fc7 <- fc6
I1029 08:28:40.144727  1910 net.cpp:356] fc7 -> fc7
I1029 08:28:40.144744  1910 net.cpp:96] Setting up fc7
I1029 08:28:40.168607  1910 net.cpp:103] Top shape: 10 4096 1 1 (40960)
I1029 08:28:40.168689  1910 net.cpp:67] Creating Layer relu7
I1029 08:28:40.168699  1910 net.cpp:394] relu7 <- fc7
I1029 08:28:40.168711  1910 net.cpp:345] relu7 -> fc7 (in-place)
I1029 08:28:40.168725  1910 net.cpp:96] Setting up relu7
I1029 08:28:40.168735  1910 net.cpp:103] Top shape: 10 4096 1 1 (40960)
I1029 08:28:40.168755  1910 net.cpp:67] Creating Layer drop7
I1029 08:28:40.168762  1910 net.cpp:394] drop7 <- fc7
I1029 08:28:40.168772  1910 net.cpp:345] drop7 -> fc7 (in-place)
I1029 08:28:40.168781  1910 net.cpp:96] Setting up drop7
I1029 08:28:40.168790  1910 net.cpp:103] Top shape: 10 4096 1 1 (40960)
I1029 08:28:40.168807  1910 net.cpp:67] Creating Layer fc8
I1029 08:28:40.168817  1910 net.cpp:394] fc8 <- fc7
I1029 08:28:40.168825  1910 net.cpp:356] fc8 -> fc8
I1029 08:28:40.168839  1910 net.cpp:96] Setting up fc8
I1029 08:28:40.174495  1910 net.cpp:103] Top shape: 10 1000 1 1 (10000)
I1029 08:28:40.174547  1910 net.cpp:67] Creating Layer prob
I1029 08:28:40.174558  1910 net.cpp:394] prob <- fc8
I1029 08:28:40.174569  1910 net.cpp:356] prob -> prob
I1029 08:28:40.174592  1910 net.cpp:96] Setting up prob
I1029 08:28:40.174617  1910 net.cpp:103] Top shape: 10 1000 1 1 (10000)
I1029 08:28:40.174629  1910 net.cpp:172] prob does not need backward computation.
I1029 08:28:40.174638  1910 net.cpp:172] fc8 does not need backward computation.
I1029 08:28:40.174645  1910 net.cpp:172] drop7 does not need backward computation.
I1029 08:28:40.174653  1910 net.cpp:172] relu7 does not need backward computation.
I1029 08:28:40.174660  1910 net.cpp:172] fc7 does not need backward computation.
…
